…
2024-11-18 17:04:07,367 - root - INFO - Overriding total number of samples to: 128
2024-11-18 17:04:07,367 - root - INFO - Number of samples per year: 1460
2024-11-18 17:04:07,367 - root - INFO - Found data at path /data/valid. Number of examples: 128. Image Shape: 360 x 720 x 20
2024-11-18 17:04:07,541 - root - INFO - Getting file stats from /data/valid/2016.h5
2024-11-18 17:04:07,542 - root - INFO - Overriding total number of samples to: 128
2024-11-18 17:04:25,585 - root - INFO - rank 0, data loader initialized
2024-11-18 17:04:27,630 - root - INFO - OptimizedModule(
  (_orig_mod): VisionTransformer(
    (patch_embed): PatchEmbed(
      (proj): Conv2d(20, 384, kernel_size=(8, 8), stride=(8, 8))
    )
    (pos_drop): Dropout(p=0.0, inplace=False)
    (blocks): ModuleList(
      (0-11): 12 x Block(
        (drop_path): Identity()
        (norm1): LayerNorm((384,), eps=1e-06, elementwise_affine=True)
        (norm2): LayerNorm((384,), eps=1e-06, elementwise_affine=True)
        (attn): Attention(
          (q): Linear(in_features=384, out_features=384, bias=True)
          (k): Linear(in_features=384, out_features=384, bias=True)
          (v): Linear(in_features=384, out_features=384, bias=True)
          (attn_drop): Dropout(p=0.0, inplace=False)
          (proj): Linear(in_features=384, out_features=384, bias=True)
          (proj_drop): Dropout(p=0.0, inplace=False)
        )
        (mlp): MLP(
          (fc1): Linear(in_features=384, out_features=1536, bias=True)
          (act): GELU(approximate='none')
          (fc2): Linear(in_features=1536, out_features=384, bias=True)
          (drop): Dropout(p=0.0, inplace=False)
        )
      )
    )
    (norm): LayerNorm((384,), eps=1e-06, elementwise_affine=True)
    (head): Linear(in_features=384, out_features=1280, bias=False)
  )
)
2024-11-18 17:04:27,631 - root - INFO - Starting Training Loop...
2024-11-18 17:04:28,720 - root - INFO - running build_ext
2024-11-18 17:04:31,937 - root - INFO - running build_ext
2024-11-18 17:04:31,953 - root - INFO - running build_ext
2024-11-18 17:04:31,953 - root - INFO - running build_ext
2024-11-18 17:04:32,345 - root - INFO - running build_ext
…
