…
2024-11-18 16:24:29,716 - root - INFO - Found data at path /data/train. Number of examples: 512. Image Shape: 360 x 720 x 20
2024-11-18 16:24:29,717 - root - INFO - Getting file stats from /data/valid/2016.h5
2024-11-18 16:24:29,718 - root - INFO - Overriding total number of samples to: 128
2024-11-18 16:24:29,718 - root - INFO - Number of samples per year: 1460
2024-11-18 16:24:29,718 - root - INFO - Found data at path /data/valid. Number of examples: 128. Image Shape: 360 x 720 x 20
2024-11-18 16:24:29,718 - root - INFO - rank 0, data loader initialized
2024-11-18 16:24:31,011 - root - INFO - VisionTransformer(
  (patch_embed): PatchEmbed(
    (proj): Conv2d(20, 384, kernel_size=(8, 8), stride=(8, 8))
  )
  (pos_drop): Dropout(p=0.0, inplace=False)
  (blocks): ModuleList(
    (0-11): 12 x Block(
      (drop_path): Identity()
      (norm1): LayerNorm((384,), eps=1e-06, elementwise_affine=True)
      (norm2): LayerNorm((384,), eps=1e-06, elementwise_affine=True)
      (attn): Attention(
        (q): Linear(in_features=384, out_features=384, bias=True)
        (k): Linear(in_features=384, out_features=384, bias=True)
        (v): Linear(in_features=384, out_features=384, bias=True)
        (attn_drop): Dropout(p=0.0, inplace=False)
        (proj): Linear(in_features=384, out_features=384, bias=True)
        (proj_drop): Dropout(p=0.0, inplace=False)
      )
      (mlp): MLP(
        (fc1): Linear(in_features=384, out_features=1536, bias=True)
        (act): GELU(approximate='none')
        (fc2): Linear(in_features=1536, out_features=384, bias=True)
        (drop): Dropout(p=0.0, inplace=False)
      )
    )
  )
  (norm): LayerNorm((384,), eps=1e-06, elementwise_affine=True)
  (head): Linear(in_features=384, out_features=1280, bias=False)
)
2024-11-18 16:24:31,012 - root - INFO - Starting Training Loop...
2024-11-18 16:25:21,246 - root - INFO - Time taken for epoch 1 is 42.666930 sec, avg 11.999926 samples/sec
2024-11-18 16:25:21,247 - root - INFO -   Avg train loss=0.577695
2024-11-18 16:25:26,587 - root - INFO -   Avg val loss=0.4208064675331116
2024-11-18 16:25:26,590 - root - INFO -   Total validation time: 4.616379499435425 sec
…
